…
************************************************************************************************
O melhor modelo é o Modelo_9 com a maior média de acurácia de validação: 0.8673
************************************************************************************************
Tempo Médio de Treino: 3071.3998886 segundos
Consumo Médio de Energia: nan W
==========================================================================================
Layer (type:depth-idx)                   Output Shape              Param #
==========================================================================================
├─Conv2d: 1-1                            [-1, 64, 32, 32]          1,728
├─BatchNorm2d: 1-2                       [-1, 64, 32, 32]          128
├─ReLU: 1-3                              [-1, 64, 32, 32]          --
├─Sequential: 1-4                        [-1, 64, 32, 32]          --
|    └─BasicBlock: 2-1                   [-1, 64, 32, 32]          --
|    |    └─Conv2d: 3-1                  [-1, 64, 32, 32]          36,864
|    |    └─BatchNorm2d: 3-2             [-1, 64, 32, 32]          128
|    |    └─ReLU: 3-3                    [-1, 64, 32, 32]          --
|    |    └─Conv2d: 3-4                  [-1, 64, 32, 32]          36,864
|    |    └─BatchNorm2d: 3-5             [-1, 64, 32, 32]          128
|    |    └─ReLU: 3-6                    [-1, 64, 32, 32]          --
|    └─BasicBlock: 2-2                   [-1, 64, 32, 32]          --
|    |    └─Conv2d: 3-7                  [-1, 64, 32, 32]          36,864
|    |    └─BatchNorm2d: 3-8             [-1, 64, 32, 32]          128
|    |    └─ReLU: 3-9                    [-1, 64, 32, 32]          --
|    |    └─Conv2d: 3-10                 [-1, 64, 32, 32]          36,864
|    |    └─BatchNorm2d: 3-11            [-1, 64, 32, 32]          128
|    |    └─ReLU: 3-12                   [-1, 64, 32, 32]          --
|    └─BasicBlock: 2-3                   [-1, 64, 32, 32]          --
|    |    └─Conv2d: 3-13                 [-1, 64, 32, 32]          36,864
|    |    └─BatchNorm2d: 3-14            [-1, 64, 32, 32]          128
|    |    └─ReLU: 3-15                   [-1, 64, 32, 32]          --
|    |    └─Conv2d: 3-16                 [-1, 64, 32, 32]          36,864
|    |    └─BatchNorm2d: 3-17            [-1, 64, 32, 32]          128
|    |    └─ReLU: 3-18                   [-1, 64, 32, 32]          --
├─Sequential: 1-5                        [-1, 128, 16, 16]         --
|    └─BasicBlock: 2-4                   [-1, 128, 16, 16]         --
|    |    └─Conv2d: 3-19                 [-1, 128, 16, 16]         73,728
|    |    └─BatchNorm2d: 3-20            [-1, 128, 16, 16]         256
|    |    └─ReLU: 3-21                   [-1, 128, 16, 16]         --
|    |    └─Conv2d: 3-22                 [-1, 128, 16, 16]         147,456
|    |    └─BatchNorm2d: 3-23            [-1, 128, 16, 16]         256
|    |    └─Sequential: 3-24             [-1, 128, 16, 16]         8,448
|    |    └─ReLU: 3-25                   [-1, 128, 16, 16]         --
|    └─BasicBlock: 2-5                   [-1, 128, 16, 16]         --
|    |    └─Conv2d: 3-26                 [-1, 128, 16, 16]         147,456
|    |    └─BatchNorm2d: 3-27            [-1, 128, 16, 16]         256
|    |    └─ReLU: 3-28                   [-1, 128, 16, 16]         --
|    |    └─Conv2d: 3-29                 [-1, 128, 16, 16]         147,456
|    |    └─BatchNorm2d: 3-30            [-1, 128, 16, 16]         256
|    |    └─ReLU: 3-31                   [-1, 128, 16, 16]         --
|    └─BasicBlock: 2-6                   [-1, 128, 16, 16]         --
|    |    └─Conv2d: 3-32                 [-1, 128, 16, 16]         147,456
|    |    └─BatchNorm2d: 3-33            [-1, 128, 16, 16]         256
|    |    └─ReLU: 3-34                   [-1, 128, 16, 16]         --
|    |    └─Conv2d: 3-35                 [-1, 128, 16, 16]         147,456
|    |    └─BatchNorm2d: 3-36            [-1, 128, 16, 16]         256
|    |    └─ReLU: 3-37                   [-1, 128, 16, 16]         --
|    └─BasicBlock: 2-7                   [-1, 128, 16, 16]         --
|    |    └─Conv2d: 3-38                 [-1, 128, 16, 16]         147,456
|    |    └─BatchNorm2d: 3-39            [-1, 128, 16, 16]         256
|    |    └─ReLU: 3-40                   [-1, 128, 16, 16]         --
|    |    └─Conv2d: 3-41                 [-1, 128, 16, 16]         147,456
|    |    └─BatchNorm2d: 3-42            [-1, 128, 16, 16]         256
|    |    └─ReLU: 3-43                   [-1, 128, 16, 16]         --
├─Sequential: 1-6                        [-1, 256, 8, 8]           --
|    └─BasicBlock: 2-8                   [-1, 256, 8, 8]           --
|    |    └─Conv2d: 3-44                 [-1, 256, 8, 8]           294,912
|    |    └─BatchNorm2d: 3-45            [-1, 256, 8, 8]           512
|    |    └─ReLU: 3-46                   [-1, 256, 8, 8]           --
|    |    └─Conv2d: 3-47                 [-1, 256, 8, 8]           589,824
|    |    └─BatchNorm2d: 3-48            [-1, 256, 8, 8]           512
|    |    └─Sequential: 3-49             [-1, 256, 8, 8]           33,280
|    |    └─ReLU: 3-50                   [-1, 256, 8, 8]           --
|    └─BasicBlock: 2-9                   [-1, 256, 8, 8]           --
|    |    └─Conv2d: 3-51                 [-1, 256, 8, 8]           589,824
|    |    └─BatchNorm2d: 3-52            [-1, 256, 8, 8]           512
|    |    └─ReLU: 3-53                   [-1, 256, 8, 8]           --
|    |    └─Conv2d: 3-54                 [-1, 256, 8, 8]           589,824
|    |    └─BatchNorm2d: 3-55            [-1, 256, 8, 8]           512
|    |    └─ReLU: 3-56                   [-1, 256, 8, 8]           --
|    └─BasicBlock: 2-10                  [-1, 256, 8, 8]           --
|    |    └─Conv2d: 3-57                 [-1, 256, 8, 8]           589,824
|    |    └─BatchNorm2d: 3-58            [-1, 256, 8, 8]           512
|    |    └─ReLU: 3-59                   [-1, 256, 8, 8]           --
|    |    └─Conv2d: 3-60                 [-1, 256, 8, 8]           589,824
|    |    └─BatchNorm2d: 3-61            [-1, 256, 8, 8]           512
|    |    └─ReLU: 3-62                   [-1, 256, 8, 8]           --
|    └─BasicBlock: 2-11                  [-1, 256, 8, 8]           --
|    |    └─Conv2d: 3-63                 [-1, 256, 8, 8]           589,824
|    |    └─BatchNorm2d: 3-64            [-1, 256, 8, 8]           512
|    |    └─ReLU: 3-65                   [-1, 256, 8, 8]           --
|    |    └─Conv2d: 3-66                 [-1, 256, 8, 8]           589,824
|    |    └─BatchNorm2d: 3-67            [-1, 256, 8, 8]           512
|    |    └─ReLU: 3-68                   [-1, 256, 8, 8]           --
|    └─BasicBlock: 2-12                  [-1, 256, 8, 8]           --
|    |    └─Conv2d: 3-69                 [-1, 256, 8, 8]           589,824
|    |    └─BatchNorm2d: 3-70            [-1, 256, 8, 8]           512
|    |    └─ReLU: 3-71                   [-1, 256, 8, 8]           --
|    |    └─Conv2d: 3-72                 [-1, 256, 8, 8]           589,824
|    |    └─BatchNorm2d: 3-73            [-1, 256, 8, 8]           512
|    |    └─ReLU: 3-74                   [-1, 256, 8, 8]           --
|    └─BasicBlock: 2-13                  [-1, 256, 8, 8]           --
|    |    └─Conv2d: 3-75                 [-1, 256, 8, 8]           589,824
|    |    └─BatchNorm2d: 3-76            [-1, 256, 8, 8]           512
|    |    └─ReLU: 3-77                   [-1, 256, 8, 8]           --
|    |    └─Conv2d: 3-78                 [-1, 256, 8, 8]           589,824
|    |    └─BatchNorm2d: 3-79            [-1, 256, 8, 8]           512
|    |    └─ReLU: 3-80                   [-1, 256, 8, 8]           --
├─Sequential: 1-7                        [-1, 512, 4, 4]           --
|    └─BasicBlock: 2-14                  [-1, 512, 4, 4]           --
|    |    └─Conv2d: 3-81                 [-1, 512, 4, 4]           1,179,648
|    |    └─BatchNorm2d: 3-82            [-1, 512, 4, 4]           1,024
|    |    └─ReLU: 3-83                   [-1, 512, 4, 4]           --
|    |    └─Conv2d: 3-84                 [-1, 512, 4, 4]           2,359,296
|    |    └─BatchNorm2d: 3-85            [-1, 512, 4, 4]           1,024
|    |    └─Sequential: 3-86             [-1, 512, 4, 4]           132,096
|    |    └─ReLU: 3-87                   [-1, 512, 4, 4]           --
|    └─BasicBlock: 2-15                  [-1, 512, 4, 4]           --
|    |    └─Conv2d: 3-88                 [-1, 512, 4, 4]           2,359,296
|    |    └─BatchNorm2d: 3-89            [-1, 512, 4, 4]           1,024
|    |    └─ReLU: 3-90                   [-1, 512, 4, 4]           --
|    |    └─Conv2d: 3-91                 [-1, 512, 4, 4]           2,359,296
|    |    └─BatchNorm2d: 3-92            [-1, 512, 4, 4]           1,024
|    |    └─ReLU: 3-93                   [-1, 512, 4, 4]           --
|    └─BasicBlock: 2-16                  [-1, 512, 4, 4]           --
|    |    └─Conv2d: 3-94                 [-1, 512, 4, 4]           2,359,296
|    |    └─BatchNorm2d: 3-95            [-1, 512, 4, 4]           1,024
|    |    └─ReLU: 3-96                   [-1, 512, 4, 4]           --
|    |    └─Conv2d: 3-97                 [-1, 512, 4, 4]           2,359,296
|    |    └─BatchNorm2d: 3-98            [-1, 512, 4, 4]           1,024
|    |    └─ReLU: 3-99                   [-1, 512, 4, 4]           --
├─AdaptiveAvgPool2d: 1-8                 [-1, 512, 1, 1]           --
├─Linear: 1-9                            [-1, 10]                  5,130
==========================================================================================
Total params: 21,282,122
Trainable params: 21,282,122
Non-trainable params: 0
Total mult-adds (G): 1.20
==========================================================================================
Input size (MB): 0.01
Forward/backward pass size (MB): 15.63
Params size (MB): 81.18
Estimated Total Size (MB): 96.82
…
